…
│ (BatchNormalizatio… │ 480)              │            │                   │
├─────────────────────┼───────────────────┼────────────┼───────────────────┤
│ expand_dropout27    │ (None, 12, 12,    │          0 │ expand_BN27[0][0] │
│ (Dropout)           │ 480)              │            │                   │
├─────────────────────┼───────────────────┼────────────┼───────────────────┤
│ expand_relu27       │ (None, 12, 12,    │          0 │ expand_dropout27… │
│ (Activation)        │ 480)              │            │                   │
├─────────────────────┼───────────────────┼────────────┼───────────────────┤
│ depthwise27         │ (None, 6, 6, 480) │      4,800 │ expand_relu27[0]… │
│ (DepthwiseConv2D)   │                   │            │                   │
├─────────────────────┼───────────────────┼────────────┼───────────────────┤
│ depthwise_BN27      │ (None, 6, 6, 480) │      1,920 │ depthwise27[0][0] │
│ (BatchNormalizatio… │                   │            │                   │
├─────────────────────┼───────────────────┼────────────┼───────────────────┤
│ depthwise_relu27    │ (None, 6, 6, 480) │          0 │ depthwise_BN27[0… │
│ (Activation)        │                   │            │                   │
├─────────────────────┼───────────────────┼────────────┼───────────────────┤
│ pointwise27         │ (None, 6, 6, 160) │     76,960 │ depthwise_relu27… │
│ (Conv2D)            │                   │            │                   │
├─────────────────────┼───────────────────┼────────────┼───────────────────┤
│ pointwise_BN27      │ (None, 6, 6, 160) │        640 │ pointwise27[0][0] │
│ (BatchNormalizatio… │                   │            │                   │
├─────────────────────┼───────────────────┼────────────┼───────────────────┤
│ pointwise_dropout27 │ (None, 6, 6, 160) │          0 │ pointwise_BN27[0… │
│ (Dropout)           │                   │            │                   │
├─────────────────────┼───────────────────┼────────────┼───────────────────┤
│ expand28 (Conv2D)   │ (None, 6, 6, 800) │    128,800 │ pointwise_dropou… │
├─────────────────────┼───────────────────┼────────────┼───────────────────┤
│ expand_BN28         │ (None, 6, 6, 800) │      3,200 │ expand28[0][0]    │
│ (BatchNormalizatio… │                   │            │                   │
├─────────────────────┼───────────────────┼────────────┼───────────────────┤
│ expand_dropout28    │ (None, 6, 6, 800) │          0 │ expand_BN28[0][0] │
│ (Dropout)           │                   │            │                   │
├─────────────────────┼───────────────────┼────────────┼───────────────────┤
│ expand_relu28       │ (None, 6, 6, 800) │          0 │ expand_dropout28… │
│ (Activation)        │                   │            │                   │
├─────────────────────┼───────────────────┼────────────┼───────────────────┤
│ depthwise28         │ (None, 6, 6, 800) │      8,000 │ expand_relu28[0]… │
│ (DepthwiseConv2D)   │                   │            │                   │
├─────────────────────┼───────────────────┼────────────┼───────────────────┤
│ depthwise_BN28      │ (None, 6, 6, 800) │      3,200 │ depthwise28[0][0] │
│ (BatchNormalizatio… │                   │            │                   │
├─────────────────────┼───────────────────┼────────────┼───────────────────┤
│ depthwise_relu28    │ (None, 6, 6, 800) │          0 │ depthwise_BN28[0… │
│ (Activation)        │                   │            │                   │
├─────────────────────┼───────────────────┼────────────┼───────────────────┤
│ pointwise28         │ (None, 6, 6, 160) │    128,160 │ depthwise_relu28… │
│ (Conv2D)            │                   │            │                   │
├─────────────────────┼───────────────────┼────────────┼───────────────────┤
│ pointwise_BN28      │ (None, 6, 6, 160) │        640 │ pointwise28[0][0] │
│ (BatchNormalizatio… │                   │            │                   │
├─────────────────────┼───────────────────┼────────────┼───────────────────┤
│ pointwise_dropout28 │ (None, 6, 6, 160) │          0 │ pointwise_BN28[0… │
│ (Dropout)           │                   │            │                   │
├─────────────────────┼───────────────────┼────────────┼───────────────────┤
│ add_18 (Add)        │ (None, 6, 6, 160) │          0 │ pointwise_dropou… │
│                     │                   │            │ pointwise_dropou… │
├─────────────────────┼───────────────────┼────────────┼───────────────────┤
│ expand29 (Conv2D)   │ (None, 6, 6, 800) │    128,800 │ add_18[0][0]      │
├─────────────────────┼───────────────────┼────────────┼───────────────────┤
│ expand_BN29         │ (None, 6, 6, 800) │      3,200 │ expand29[0][0]    │
│ (BatchNormalizatio… │                   │            │                   │
├─────────────────────┼───────────────────┼────────────┼───────────────────┤
│ expand_dropout29    │ (None, 6, 6, 800) │          0 │ expand_BN29[0][0] │
│ (Dropout)           │                   │            │                   │
├─────────────────────┼───────────────────┼────────────┼───────────────────┤
│ expand_relu29       │ (None, 6, 6, 800) │          0 │ expand_dropout29… │
│ (Activation)        │                   │            │                   │
├─────────────────────┼───────────────────┼────────────┼───────────────────┤
│ depthwise29         │ (None, 6, 6, 800) │      8,000 │ expand_relu29[0]… │
│ (DepthwiseConv2D)   │                   │            │                   │
├─────────────────────┼───────────────────┼────────────┼───────────────────┤
│ depthwise_BN29      │ (None, 6, 6, 800) │      3,200 │ depthwise29[0][0] │
│ (BatchNormalizatio… │                   │            │                   │
├─────────────────────┼───────────────────┼────────────┼───────────────────┤
│ depthwise_relu29    │ (None, 6, 6, 800) │          0 │ depthwise_BN29[0… │
│ (Activation)        │                   │            │                   │
├─────────────────────┼───────────────────┼────────────┼───────────────────┤
│ pointwise29         │ (None, 6, 6, 160) │    128,160 │ depthwise_relu29… │
│ (Conv2D)            │                   │            │                   │
├─────────────────────┼───────────────────┼────────────┼───────────────────┤
│ pointwise_BN29      │ (None, 6, 6, 160) │        640 │ pointwise29[0][0] │
│ (BatchNormalizatio… │                   │            │                   │
├─────────────────────┼───────────────────┼────────────┼───────────────────┤
│ pointwise_dropout29 │ (None, 6, 6, 160) │          0 │ pointwise_BN29[0… │
│ (Dropout)           │                   │            │                   │
├─────────────────────┼───────────────────┼────────────┼───────────────────┤
│ add_19 (Add)        │ (None, 6, 6, 160) │          0 │ pointwise_dropou… │
│                     │                   │            │ add_18[0][0]      │
├─────────────────────┼───────────────────┼────────────┼───────────────────┤
│ expand30 (Conv2D)   │ (None, 6, 6, 800) │    128,800 │ add_19[0][0]      │
├─────────────────────┼───────────────────┼────────────┼───────────────────┤
│ expand_BN30         │ (None, 6, 6, 800) │      3,200 │ expand30[0][0]    │
│ (BatchNormalizatio… │                   │            │                   │
├─────────────────────┼───────────────────┼────────────┼───────────────────┤
│ expand_dropout30    │ (None, 6, 6, 800) │          0 │ expand_BN30[0][0] │
│ (Dropout)           │                   │            │                   │
├─────────────────────┼───────────────────┼────────────┼───────────────────┤
│ expand_relu30       │ (None, 6, 6, 800) │          0 │ expand_dropout30… │
│ (Activation)        │                   │            │                   │
├─────────────────────┼───────────────────┼────────────┼───────────────────┤
│ depthwise30         │ (None, 6, 6, 800) │      8,000 │ expand_relu30[0]… │
│ (DepthwiseConv2D)   │                   │            │                   │
├─────────────────────┼───────────────────┼────────────┼───────────────────┤
│ depthwise_BN30      │ (None, 6, 6, 800) │      3,200 │ depthwise30[0][0] │
│ (BatchNormalizatio… │                   │            │                   │
├─────────────────────┼───────────────────┼────────────┼───────────────────┤
│ depthwise_relu30    │ (None, 6, 6, 800) │          0 │ depthwise_BN30[0… │
│ (Activation)        │                   │            │                   │
├─────────────────────┼───────────────────┼────────────┼───────────────────┤
│ pointwise30         │ (None, 6, 6, 320) │    256,320 │ depthwise_relu30… │
│ (Conv2D)            │                   │            │                   │
├─────────────────────┼───────────────────┼────────────┼───────────────────┤
│ pointwise_BN30      │ (None, 6, 6, 320) │      1,280 │ pointwise30[0][0] │
│ (BatchNormalizatio… │                   │            │                   │
├─────────────────────┼───────────────────┼────────────┼───────────────────┤
│ pointwise_dropout30 │ (None, 6, 6, 320) │          0 │ pointwise_BN30[0… │
│ (Dropout)           │                   │            │                   │
├─────────────────────┼───────────────────┼────────────┼───────────────────┤
│ expand31 (Conv2D)   │ (None, 6, 6,      │    513,600 │ pointwise_dropou… │
│                     │ 1600)             │            │                   │
├─────────────────────┼───────────────────┼────────────┼───────────────────┤
…
│ (DepthwiseConv2D)   │ 1600)             │            │                   │
├─────────────────────┼───────────────────┼────────────┼───────────────────┤
│ depthwise_BN31      │ (None, 6, 6,      │      6,400 │ depthwise31[0][0] │
│ (BatchNormalizatio… │ 1600)             │            │                   │
├─────────────────────┼───────────────────┼────────────┼───────────────────┤
│ depthwise_relu31    │ (None, 6, 6,      │          0 │ depthwise_BN31[0… │
│ (Activation)        │ 1600)             │            │                   │
├─────────────────────┼───────────────────┼────────────┼───────────────────┤
│ pointwise31         │ (None, 6, 6, 480) │    768,480 │ depthwise_relu31… │
│ (Conv2D)            │                   │            │                   │
├─────────────────────┼───────────────────┼────────────┼───────────────────┤
│ pointwise_BN31      │ (None, 6, 6, 480) │      1,920 │ pointwise31[0][0] │
│ (BatchNormalizatio… │                   │            │                   │
├─────────────────────┼───────────────────┼────────────┼───────────────────┤
│ pointwise_dropout31 │ (None, 6, 6, 480) │          0 │ pointwise_BN31[0… │
│ (Dropout)           │                   │            │                   │
├─────────────────────┼───────────────────┼────────────┼───────────────────┤
│ last_conv1x1        │ (None, 6, 6,      │    923,520 │ pointwise_dropou… │
│ (Conv2D)            │ 1920)             │            │                   │
├─────────────────────┼───────────────────┼────────────┼───────────────────┤
│ last_BN             │ (None, 6, 6,      │      7,680 │ last_conv1x1[0][… │
│ (BatchNormalizatio… │ 1920)             │            │                   │
├─────────────────────┼───────────────────┼────────────┼───────────────────┤
│ pointwise_dropout   │ (None, 6, 6,      │          0 │ last_BN[0][0]     │
│ (Dropout)           │ 1920)             │            │                   │
├─────────────────────┼───────────────────┼────────────┼───────────────────┤
│ global_average_poo… │ (None, 1920)      │          0 │ pointwise_dropou… │
│ (GlobalAveragePool… │                   │            │                   │
├─────────────────────┼───────────────────┼────────────┼───────────────────┤
│ flatten_1 (Flatten) │ (None, 1920)      │          0 │ global_average_p… │
├─────────────────────┼───────────────────┼────────────┼───────────────────┤
│ FC0 (Dense)         │ (None, 1920)      │  3,688,320 │ flatten_1[0][0]   │
├─────────────────────┼───────────────────┼────────────┼───────────────────┤
│ FC1 (Dense)         │ (None, 1920)      │  3,688,320 │ FC0[0][0]         │
├─────────────────────┼───────────────────┼────────────┼───────────────────┤
│ softmax-7 (Dense)   │ (None, 7)         │     13,447 │ FC1[0][0]         │
└─────────────────────┴───────────────────┴────────────┴───────────────────┘
 Total params: 33,480,454 (127.72 MB)
 Trainable params: 11,147,447 (42.52 MB)
 Non-trainable params: 38,112 (148.88 KB)
 Optimizer params: 22,294,895 (85.05 MB)

